----------------------------------------------------------------
        Layer (type)               Output Shape         Param #
================================================================
            Linear-1          [-1, 3, 224, 128]          28,800
              ReLU-2          [-1, 3, 224, 128]               0
            Linear-3          [-1, 3, 224, 128]          16,512
              ReLU-4          [-1, 3, 224, 128]               0
            Linear-5           [-1, 3, 224, 43]           5,547
================================================================
Total params: 50,859
Trainable params: 50,859
Non-trainable params: 0
----------------------------------------------------------------
Input size (MB): 0.57
Forward/backward pass size (MB): 2.85
Params size (MB): 0.19
Estimated Total Size (MB): 3.61
